flask/model.pth (torch, 7348 bytes, 5 tensors)

linear_stack.0.weight f4 [30, 7]
0.15903188 0.13065375 0.20911954 -0.31589735 0.18658559 -0.3692077 -0.10465645 -0.1799878
-0.16324113 -0.17012256 -0.2385119 0.324173 0.0023775715 0.30809316 -0.6749655 0.30278736
0.33880278 0.15673043 0.2788028 0.7824428 0.015891787 -0.30820325 -0.30685148 0.24818349
-0.36759904 0.28315973 0.02559154 0.09400268 0.55917895 0.54863036 -0.0053317714 -0.30839357
-0.07790337 0.40217215 -0.3331354 0.22811072 -0.19605274 -0.31901443 0.016174542 -0.34692946
-0.20568502 0.31026044 -0.58255124 0.3099981 0.26963425 -0.03020768 -0.16203253 0.024119915
0.13052846 1.3578095 -0.85259205 0.06792897 -0.4053035 0.08343207 0.27558467 -0.4966638
-0.15914038 0.11289868 -0.18688168 -0.13908973 0.19002642 0.117435396 -0.21036594 -0.17517732
0.34392914 -0.14137381 0.11792727 0.26990685 -0.08546439 -0.3000374 0.10148997 -0.2832192
0.3927169 -0.24129052 0.10330841 -0.091776356 0.25919536 -0.15491968 -0.11467278 0.09785035
-0.08035869 0.18918064 -0.3423626 0.19933411 0.03361629 -0.19753885 0.25502768 -0.29975522
-0.29462102 0.2743602 -0.3365139 0.7450387 -0.40853196 -0.36930826 0.09922592 -0.41639376
-0.11859743 -0.0733582 0.05491194 0.037230834 -0.4447769 -0.22557837 0.027017543 -0.05726328
-0.1262443 -0.2847415 -0.09520408 0.022629367 0.2468412 -0.3162817 0.18525402 -0.036849346
1.4666264 0.5297242 -0.34096414 -0.50671256 -0.3145533 0.3202746 -0.13691045 0.049092807
0.078433275 -0.31709287 -0.36770985 -0.32856363 -0.14046493 -0.110866554 0.11413308 0.5056737
0.33003375 -0.25846943 -0.042908255 -0.29463682 0.28408438 0.005637982 -0.12472272 0.4677838
0.23484905 -0.08438839 -0.5193912 -0.0658676 -0.061754394 0.0035735548 -0.12693116 0.23749188
0.20150708 0.15072437 0.13198662 -0.037148174 -0.18108447 0.18963009 -0.06256484 0.38888764
0.07567127 0.3383925 -0.33941558 0.25358075 0.28973773 -0.1925081 -0.06939342 0.32509756
0.2841564 -0.116158076 0.061231315 0.25353503 0.12198467 0.39797196 -0.015910467 0.30592418
0.24697278 0.08811417 -0.0571657 0.24632901 0.22798759 -0.2038056 -0.25435126 0.58152366
-0.11186807 0.1519812 -0.1977537 -0.3345801 0.31133687 -0.3569006 -0.99032766 -0.6415374
0.16446123 0.2809663 0.20822291 0.10893725 -0.033726137 -0.08026247 0.00845511 -0.16232415
-0.123674706 -0.44365668 0.20752598 -0.24096282 -0.11867332 0.012246717 -0.09586855 -0.3671
-0.33566767 0.22717552 -0.21643727 0.53468126 0.1252261 -0.33218777 -0.44182613 -0.3525603
0.46074948 -0.19095251
00000000: 41d9 223e 19ca 053e 6f23 563e 4cbd a1be
00000010: 4b10 3f3e cb08 bdbe 1f56 d6bd b94e 38be
00000020: af28 27be 9c34 2ebe 773c 74be 01fa a53e
00000030: 08d1 1b3b 63be 9d3e 8aca 2cbf f206 9b3e
00000040: 8f77 ad3e f17d 203e 3ebf 8e3e 2c4e 483f
00000050: 7e2f 823c d1cc 9dbe a31b 9dbe d023 7e3e
00000060: f135 bcbe 50fa 903e 59a5 d13c 7a84 c03d
00000070: 5a26 0f3f 0a73 0c3f 24b6 aebb c3e5 9dbe
00000080: cd8b 9fbd 82e9 cd3e b990 aabe db95 693e
00000090: 0dc2 48be dc55 a3be 7980 843c bda0 b1be
000000a0: 189f 52be 75da 9e3e 1422 15bf 12b8 9e3e
000000b0: 800d 8a3e 1976 f7bc dbeb 25be 2197 c53c
000000c0: 41a9 053e b4cc ad3f 7943 5abf 581e 8b3d
000000d0: f183 cfbe 6fde aa3d 6f19 8d3e b84a febe
000000e0: b2f5 22be 6c37 e73d e95d 3fbe 8a6d 0ebe
000000f0: 4996 423e f881 f03d 2b6a 57be af61 33be
00000100: 7b17 b03e 4cc4 10be da83 f13d 3b31 8a3e
00000110: f407 afbd 819e 99be f9d9 cf3d 1b02 91be
00000120: 3112 c93e dd14 77be 5c93 d33d 3ef5 bbbd
00000130: 41b5 843e 44a3 1ebe 90d9 eabd c465 c83d
00000140: 1993 a4bd 92b8 413e 274a afbe 3e1e 4c3e
00000150: 3cb1 093d a047 4abe fd92 823e 8479 99be
00000160: 91d8 96be f178 8c3e 8d4b acbe dbba 3e3f
00000170: 1a2b d1be f915 bdbe f636 cb3d 9031 d5be
00000180: 36e3 f2bd d33c 96bd 58eb 603d 5c7f 183d
00000190: ccb9 e3be 04fe 66be e553 dd3c e78c 6abd
000001a0: 3046 01be a3c9 91be 5bfa c2bd 3961 b93c
000001b0: f1c3 7c3e adef a1be 3bb3 3d3e 57ef 16bd
000001c0: 6aba bb3f 019c 073f da92 aebe eab7 01bf
000001d0: 210d a1be 08fb a33e 4132 0cbe 8a15 493d
000001e0: a0a1 a03d ff59 a2be 7744 bcbe 7e39 a8be
000001f0: 0ad6 0fbe 010e e3bd 9bbe e93d d573 013f
00000200: 2ffa a83e 1b56 84be 91c0 2fbd a3da 96be
00000210: 8273 913e d2be b83b a06e ffbd 5c81 ef3e
00000220: 457c 703e d2d3 acbd d2f6 04bf 98e5 86bd
00000230: 2df2 7cbd 4d32 6a3b 3efa 01be 1231 733e
00000240: df57 4e3e 7d57 1a3e 8027 073e af28 18bd
00000250: 356e 39be 642e 423e ff21 80bd 481c c73e
00000260: 8af9 9a3d c841 ad3e e1c7 adbe 56d5 813e
00000270: 8158 943e d820 45be 231e 8ebd 3073 a63e
00000280: f37c 913e 49e4 edbd b0cd 7a3d 58cf 813e
00000290: 19d3 f93d fbc2 cb3e ab56 82bc 18a2 9c3e
000002a0: 6fe6 7c3e 3475 b43d 9526 6abd ac3d 7c3e
000002b0: 9475 693e 6ab2 50be 543a 82be bcde 143f
000002c0: 161b e5bd f6a0 1b3e f27f 4abe 154e abbe
000002d0: 8c67 9f3e adbb b6be 1d86 7dbf cc3b 24bf
000002e0: 8668 283e d1da 8f3e 6338 553e 7e1a df3d
000002f0: 6b24 0abd a660 a4bd 4d87 0a3c 4d38 26be
00000300: 2a49 fdbd f826 e3be b181 543e f5be 76be
00000310: ff0a f3bd 74a6 483c bb56 c4bd 88f4 bbbe
00000320: a2dc abbe b3a0 683e bba1 5dbe dfe0 083f
00000330: 453b 003e 8414 aabe 0937 e2be c982 b4be
00000340: 5be7 eb3e 0e89 43be

linear_stack.0.bias f4 [30]
0.16946247 -0.02332291 0.113053896 0.41485164 -0.59049165 0.28911954 0.48672417 -1.164706
0.011173445 0.16669175 0.22185889 0.085269146 -0.3268653 -0.29061297 0.37640914 -0.20845757
-0.94707596 0.466239 -0.43334845 -0.5714872 0.26078615 -0.037473883 -0.33293596 -0.4051278
-0.12491267 0.28458858 0.69616705 0.46499026 -0.13074012 0.6428124
00000000: 9287 2d3e b00f bfbc cd88 e73d 6f67 d43e
00000010: 762a 17bf 7a07 943e e933 f93e 1615 95bf
00000020: d310 373c 3eb1 2a3e fa2e 633e 97a1 ae3d
00000030: e35a a7be 39cb 94be b3b8 c03e e775 55be
00000040: 9273 72bf e1b6 ee3e d9df ddbe fc4c 12bf
00000050: c385 853e 377e 19bd 9576 aabe e96c cfbe
00000060: 37d2 ffbd 98b5 913e 0138 323f 3413 ee3e
00000070: bde0 05be 5a8f 243f

linear_stack.2.weight f4 [30, 30]
-0.16253008 0.22377568 0.30407768 0.30593786 -0.22635725 0.09686847 0.2985573 -0.6033605
0.10632089 0.05805967 -0.14585961 -0.025405407 0.021700563 -0.2875941 0.24185053 0.14976159
-0.6580211 0.23623556 -0.1548277 -0.06870967 -0.032153778 -0.05628934 -0.08418465 -0.23315534
-0.23034632 -0.06835503 0.5048318 0.040907867 -0.1307993 0.27631196 -0.07790072 0.07024199
-0.24914937 -0.11758434 0.11857381 -0.15686701 -0.11825938 0.4066618 0.059892397 -0.036947884
0.106400155 0.025092041 0.037304346 -0.1843309 -0.28661042 -0.04224082 0.056400493 -0.15177748
0.13757387 0.2798487 0.13734417 -0.06956648 0.22019458 0.25170815 -0.092794426 -0.3182379
-0.23984788 -0.009051845 -0.098567925 -0.47515887 0.10750723 -0.055323627 0.15784651 -0.13831633
0.13935345 -0.07672598 -0.0042662476 -0.05674462 0.05146378 0.08982508 -0.17171703 -0.07915721
-0.10217961 0.0075403824 0.036610015 0.094508156 0.17435537 -0.20915549 0.11163432 0.10790848
-0.09858212 -0.019785132 0.06317692 0.20129138 -0.033914145 0.115820095 0.063082285 0.14260449
-0.025803793 -0.17059991 0.11200852 0.08683625 -0.118712954 0.18831511 -0.17217511 -0.1075469
0.17976685 0.28306094 0.14169833 0.14676578 0.1602136 0.16178407 0.10150378 -0.102007136
-0.13325003 0.00861193 0.11664478 -0.085674874 0.10956033 0.27640945 -0.14429514 0.15398873
-0.049145427 0.061569385 -0.0139653655 -0.20359272 -0.1957452 0.08721374 -0.15736286 -0.22257914
0.13448426 -0.050353184 -0.105216295 -0.105723456 -0.16283804 0.10729724 0.018164625 0.06479169
0.16337039 -0.1386886 -0.122050196 -0.17152971 0.056188278 -0.011349154 -0.1285285 0.15545438
0.09306786 -0.08654668 -0.073936656 -0.07537906 -0.17046629 -0.09268935 0.13995245 0.05719998
0.11320448 -0.038511246 0.04097424 0.04724804 0.095225625 0.07528446 0.106877886 -0.12693246
0.00034631958 0.09861566 0.04405074 0.12948164 -0.11110045 0.025319504 -0.090448 -0.1251438
0.16927375 -0.13912976 -0.16118097 0.07339516 -0.13107611 0.113163784 0.11247781 0.15375856
0.080715545 -0.14865924 -0.091360696 0.07449896 0.058700725 -0.06771237 -0.18641262 0.032444075
0.0887605 -0.08487676 -0.15074143 0.1450741 0.0007145062 0.13203104 0.01970986 0.18134567
0.077465385 0.05604086 0.1691391 0.14499834 0.109856434 -0.15686484 -0.13083516 -0.14969552
-0.16968863 0.066459715 -0.19968629 -0.11216773 -0.09668949 -0.029568885 -0.012537395 0.13711046
0.10961415 0.12162713 0.06825435 0.096918754 0.01820987 -0.02657121 0.1165764 -0.018640507
-0.0069755754 -0.1519187 -0.059634473 -0.13341585 0.18297757 -0.14380974 -0.0909064 -0.07593521
-0.16533224 -0.11899801 -0.16092984 -0.049003176 -0.11151902 0.13838522 0.006762269 0.043209795
0.12127155 -0.021611625 -0.10140503 0.008910803 0.13339996 0.1118796 0.15152845 -0.10815841
-0.038023584 0.16096425 0.04245366 -0.081957795 0.062429506 -0.16438171 -0.0719143 -0.048572857
0.021102801 -0.05400764 0.18565395 0.11746708 -0.062469557 0.08592225 0.14375025 -0.25622058
0.2042197 0.024433652 -0.17199302 -0.11044597 -0.11632647 -0.0032884663 0.15096672 -0.13093117
00000000: 496e 26be 7425 653e 12b0 9b3e e3a3 9c3e
00000010: 32ca 67be fa62 c63d 81dc 983e d575 1abf
00000020: c4be d93d facf 6d3d 395c 15be 001f d0bc
00000030: 61c5 b13c 893f 93be aaa7 773e 1a5b 193e
00000040: 1274 28bf bce7 713e 278b 1ebe a8b7 8cbd
00000050: aeb3 03bd a78f 66bd 0069 acbd 46c0 6ebe
00000060: e8df 6bbe b9fd 8bbd a83c 013f 028f 273d
00000070: 40f0 05be c378 8d3e 6a8a 9fbd 08db 8f3d
00000080: 0321 7fbe 0fd0 f0bd d3d6 f23d bfa1 20be
00000090: f931 f2bd fa35 d03e bb51 753d aa56 17bd
000000a0: 53e8 d93d d38d cd3c 71cc 183d 3dc1 3cbe
000000b0: 9abe 92be b604 2dbd 3404 673d 8e6b 1bbe
000000c0: 2ae0 0c3e 5448 8f3e f3a3 0c3e df78 8ebd
000000d0: b07a 613e e4df 803e 010b bebd 14f0 a2be
000000e0: af9a 75be 314e 14bc fbdd c9bd 0648 f3be
000000f0: c02c dc3d 079b 62bd 84a2 213e cca2 0dbe
00000100: acb2 0e3e 8322 9dbd e1cb 8bbb 0c6d 68bd
00000110: afcb 523d 36f6 b73d 97d6 2fbe 2d1d a2bd
00000120: 8b43 d1bd 5015 f73b 62f4 153d 7e8d c13d
00000130: 378a 323e db2c 56be 89a0 e43d 1fff dc3d
00000140: 6ce5 c9bd 6e14 a2bc e762 813d 541f 4e3e
00000150: 8fe9 0abd 1633 ed3d 4931 813d e906 123e
00000160: 7a62 d3bc beb1 2ebe b964 e53d 34d7 b13d
00000170: c71f f3bd add5 403e ac4e 30be 8d41 dcbd
00000180: cd14 383e 5ded 903e 5e19 113e c549 163e
00000190: 090f 243e b9aa 253e 37e1 cf3d 1ee9 d0bd
000001a0: b272 08be 0d19 0d3c 75e3 ee3d 4f76 afbd
000001b0: 2b61 e03d 8a85 8d3e 1bc2 13be 39af 1d3e
000001c0: b74c 49bd 2e30 7c3d fdce 64bc 9c7a 50be
000001d0: 6e71 48be 1e9d b23d bb23 21be c9eb 63be
000001e0: 3eb6 093e 243f 4ebd a47b d7bd 8a85 d8bd
000001f0: 04bf 26be a8be db3d fbcd 943c 81b1 843d
00000200: 914a 273e 6204 0ebe 74f5 f9bd 7ca5 2fbe
00000210: ae25 663d cdf1 39bc fa9c 03be 6f2f 1f3e
00000220: 5d9a be3d 633f b1bd 1a6c 97bd 5660 9abd
00000230: b78e 2ebe ead3 bdbd b24f 0f3e 874a 6a3d
00000240: c0d7 e73d f8bd 1dbd 9bd4 273d 2987 413d
00000250: a705 c33d bd2e 9a3d cbe2 da3d 95fa 01be
00000260: 3a92 b539 02f7 c93d 8c6e 343d d696 043e
00000270: a288 e3bd d96a cf3c cd3c b9bd b225 00be
00000280: 1956 2d3e 0878 0ebe a00c 25be 3450 963d
00000290: d138 06be 6ac2 e73d c45a e63d e272 1d3e
000002a0: 314e a53d 213a 18be 511b bbbd e992 983d
000002b0: 2c70 703d c8ac 8abd f3e2 3ebe 14e4 043d
000002c0: 11c8 b53d ded3 adbd f65b 1abe 4e8e 143e
000002d0: b34d 3b3a 2533 073e 9376 a13c aeb2 393e
000002e0: 2ca6 9e3d 1a8b 653d cd32 2d3e 727a 143e
000002f0: 69fc e03d 2da1 20be a7f9 05be c849 19be
00000300: dbc2 2dbe 081c 883d 907a 4cbe 32b8 e5bd
00000310: 2405 c6bd 723a f2bc a569 4dbc af66 0c3e
00000320: 627d e03d a517 f93d f0c8 8b3d 577d c63d
00000330: de2c 953c deab d9bc 9cbf ee3d fab3 98bc
00000340: 5e93 e4bb 9390 1bbe 4743 74bd 2a9e 08be
00000350: 795e 3b3e dc42 13be 222d babd eb83 9bbd
00000360: db4c 29be 3bb5 f3bd cbca 24be 8eb7 48bd
00000370: 1564 e4bd dbb4 0d3e 0696 dd3b c1fc 303d
00000380: 385d f83d dd0a b1bc 71ad cfbd 9efe 113c
00000390: 009a 083e 2221 e53d 462a 1b3e 2882 ddbd
000003a0: 9ebe 1bbd d0d3 243e e4e3 2d3d 7dd9 a7bd
000003b0: 15b6 7f3d ae53 28be ce47 93bd 55f4 46bd
000003c0: c8df ac3c 1d37 5dbd 121c 3e3e 9592 f03d
000003d0: 14e0 7fbd 01f8 af3d 4433 133e 582f 83be
000003e0: f81e 513e 1529 c83c f01e 30be 7f31 e2bd
000003f0: 933c eebd 4f83 57bb 0597 1a3e d212 06be

linear_stack.2.bias f4 [30]
0.32109052 0.096040905 -0.10231109 0.10921417 0.030822674 -0.046346646 -0.07766594 0.0901741
0.101915814 -0.084624484 0.07582477 -0.041968156 -0.096035175 -0.07021245 0.103092276 -0.12323392
0.07283832 -0.0785985 -0.095735 -0.16713212 0.052889943 -0.21484645 -0.03982593 -0.00811167
-0.055513605 0.032901086 0.07183328 0.0020847572 0.07650489 0.06064496
00000000: fa65 a43e 18b1 c43d 7a88 d1bd aeab df3d
00000010: d57f fc3c fbd5 3dbd 520f 9fbd 33ad b83d
00000020: 3db9 d03d 9a4f adbd 044a 9b3d cde6 2bbd
00000030: 17ae c4bd 8ccb 8fbd 0b22 d33d 1162 fcbd
00000040: 422c 953d 40f8 a0bd b610 c4bd af24 2bbe
00000050: 20a3 583d b500 5cbe 8420 23bd cfe6 04bc
00000060: 3c62 63bd 4ac3 063d 541d 933d 6ca0 083b
00000070: 99ae 9c3d d966 783d

linear_stack.4.weight f4 [1, 30]
-0.8646453 0.918601 0.24390799 0.6029853 0.03726789 0.008638715 0.31444496 0.1530085
-0.44781002 0.31540745 0.31102532 0.4422949 -0.012145157 0.5265521 -0.36567956 0.071182966
-0.50925106 0.53742987 -0.019276973 0.12799671 0.055889145 0.7243222 1.0109651 -1.0952015
0.45803156 0.0993559 0.24271144 0.09212433 -0.53143734 0.23610727
00000000: 6559 5dbf 6f29 6b3f 04c3 793e 3f5d 1a3f
00000010: 37a6 183d 6689 0d3c eefe a03e 43ae 1c3e
00000020: 5b47 e5be 167d a13e b63e 9f3e 7a74 e23e
00000030: 7bfc 46bc 1ecc 063f 5a3a bbbe 60c8 913d
00000040: 475e 02bf 0195 093f beea 9dbc 9211 033e
00000050: 04ec 643d 2e6d 393f 4e67 813f 902f 8cbf
00000060: 1d83 ea3e 1b7b cb3d 5989 783e aeab bc3d
00000070: 470c 08bf 1bc6 713e
