flask/model.pth (torch, 7348 bytes, 5 tensors)

linear_stack.0.weight f4 [30, 7]
00000000: 4aa9 00bd e7e7 a4bd 4076 813d bad6 ef3e
00000010: 8ecb 983e 4413 fcbd 227a 163c b3cb 083f
00000020: f31a 03be 1cda fd3e 0c78 07be 554f 173d
00000030: 591f dabe a8c9 41bd 4727 ac3e c6bf 0dbe
00000040: 8106 703e 45c4 0b3e 1a94 aa3c 0168 6bbe
00000050: edfb 853e d895 2abf f4ee 5d3f 40fe e1bb
00000060: e72f 5a3d 6f21 99bc 0743 6e3f aa84 dbbd
00000070: 08f2 fe3d 2a91 d03d 6612 963e 9ae1 07bc
00000080: a775 cd3e 8e3e b5be e4ef 2c3c acc8 433d
00000090: 840e 2b3e f2ae a6be a72d 433e 7c55 053e
000000a0: 2147 743e 0148 1ebe 215a c03e c9f6 82be
000000b0: ba66 a2be 7c05 6c3e 9c62 8f3e 4d65 29bf
000000c0: d38c 983d 58cf 42c0 be56 433c 1227 023f
000000d0: da41 993e ba73 e63e c503 33bf c192 ef3d
000000e0: 517f e73e 72a6 9d3e 2680 89be b553 25be
000000f0: e205 46be f330 11bd b644 173e abdf 323f
00000100: 82d7 973c 3b13 87be e558 84be 54ca 84be
00000110: 588c 20be de04 a13c 00c9 0e3f d189 403c
00000120: be71 bdbe 5e29 80be f892 c83d 2dd1 84be
00000130: 1b34 8dbe f888 a43e 4b92 adbe 4da0 adbe
00000140: 374f f6bb ea0d a1be aec5 ba3e 4f46 a1be
00000150: 1611 503e b1d5 d93d a629 41be 8007 613e
00000160: 30e5 273e e29f 603e fdfe acbd b4b5 8fbe
00000170: 7836 d03d e186 f7bd c154 9fbe 64f5 b33e
00000180: 27c2 d1bc 332e 2d3e 5b86 863e 468e 2dbe
00000190: 05fc 543e 531e 15be 4fa2 d5bd fa86 a4be
000001a0: a9e4 a53d 04b7 ff3d 609d 3d3e 186c 50be
000001b0: de4a b2be 12ba dabe 10c8 01bd 360e 8abe
000001c0: 382b ca3e f60c 47be 5f46 ac3e d252 973e
000001d0: f745 49be 4222 c8be afa2 21bd b585 dfbe
000001e0: 8511 70be 3a0f 1dbe 6ae3 033e 5bf6 1e3d
000001f0: 4684 a73e 6f7c 81be 2001 edbe 0c7a 97bd
00000200: a02b c93e 8245 5d3e 7b7e bd3e ddc6 64bd
00000210: 6534 b5be 6517 4b3f a925 94bd 2a1a 80be
00000220: b7ad 803e 3b98 f63d daa2 13bf d565 89be
00000230: f49e e6bd 1a0a ecbc 2578 af3e 507f 9ebe
00000240: f6e7 5b3e 4c75 383e ce39 e4bc ce8f 48bf
00000250: 3071 76bf e8bd 9c3e 7069 1fbd 734a 49be
00000260: 316e 533f 95b5 593e 9e8f 7abe 43e8 5d3e
00000270: e9ef 043f 5040 973d c89c 9abe c164 9cbf
00000280: ed6e b1bd 9194 1a3f e54e 1f3f cbee 213e
00000290: eac4 8d3e 1598 aebe 66d7 453e 2411 0a3d
000002a0: b3c6 fb3d dc09 8a3c a993 f7be bc2d 86be
000002b0: 43e5 4fbe 882a f43d 129c 9dbd ede2 223e
000002c0: a161 54be 6980 5e3d 179d 5cbe 07ce 0fbe
000002d0: 0b22 2b3e 10e1 02be c6bb 323e 9d1c 313d
000002e0: 13ec edbe 7531 503e fcc9 c3be 622e a73d
000002f0: 5fdd 54bd 905f d9bd 967d b5be 788d d9bc
00000300: 816c c63d 3e68 a73e a54f b53e bab9 2bbe
00000310: ac94 84be 9b14 58bd 6a99 2ebe aa87 533e
00000320: 2ded 253d 453c de3d 846b aebe fa1b 8dbe
00000330: 5fee b4bd 6135 8abb 9acb c73e 82a3 ae3d
00000340: 17bf 8ebe 1ec9 9dbe
-0.031411447 -0.08052044 0.063213825 0.4684351 0.298428 -0.12308362 0.009184392 0.5343582
-0.12803249 0.49580467 -0.13229388 0.03694089 -0.4260204 -0.047311455 0.33623716 -0.13842687
0.23439981 0.1364909 0.020822573 -0.22988893 0.26168767 -0.66634893 0.8669274 -0.006896764
0.05326834 -0.0186927 0.93071026 -0.10718663 0.124485075 0.10183938 0.29310912 -0.008293534
0.40128824 -0.35399288 0.010555241 0.047798797 0.16704756 -0.32555348 0.19060384 0.13020891
0.23855259 -0.15457155 0.37568763 -0.25578907 -0.31719 0.23048967 0.2800492 -0.661702
0.07448735 -3.0439053 0.011922536 0.50840867 0.29933053 0.45010167 -0.69927627 0.11697913
0.45214322 0.3079105 -0.26855582 -0.16145213 -0.19338182 -0.035447072 0.14772305 0.6987254
0.01853538 -0.2638186 -0.2584907 -0.25935614 -0.15678537 0.019655641 0.5577545 0.011751608
-0.3700084 -0.2503156 0.09793657 -0.25940838 -0.27578816 0.3213575 -0.33900675 -0.33911362
-0.0075167674 -0.31455928 0.36478943 -0.31498954 0.20319018 0.106364615 -0.18863544 0.21975517
0.16396022 0.2193599 -0.08447073 -0.28068316 0.10166639 -0.12086273 -0.3111935 0.35148156
-0.025605274 0.16912155 0.2627438 -0.16948804 0.20799263 -0.14562349 -0.104313485 -0.3213423
0.08100254 0.12486079 0.18517065 -0.20353734 -0.34822744 -0.42720085 -0.031684935 -0.26963967
0.39486098 -0.19438538 0.3364744 0.29555374 -0.19655596 -0.39088637 -0.039461788 -0.43656698
-0.23444183 -0.1533784 0.1287972 0.03880916 0.32718104 -0.25290248 -0.4628992 -0.073963255
0.39291096 0.21608546 0.3701056 -0.055853713 -0.35391536 0.7933257 -0.072337456 -0.25019962
0.25132534 0.120407544 -0.57670367 -0.26835504 -0.11260787 -0.02881341 0.3427135 -0.30956507
0.21475205 0.18013495 -0.027859595 -0.7834443 -0.9626646 0.30613637 -0.038918912 -0.19657306
0.82590014 0.21260674 -0.24468848 0.21670632 0.51928574 0.073853135 -0.3019774 -1.2218248
-0.086637355 0.60382944 0.6222976 0.15813749 0.27689296 -0.34100404 0.19320449 0.033707753
0.12293758 0.016850404 -0.48354843 -0.26206768 -0.203023 0.11922175 -0.07695784 0.15906878
-0.20740367 0.05432168 -0.215443 -0.14043437 0.16712205 -0.12781167 0.17454442 0.04324018
-0.46469173 0.20331366 -0.3824004 0.08163144 -0.05196893 -0.1061393 -0.35447377 -0.026556715
0.09688664 0.32696718 0.35412326 -0.16770068 -0.25894678 -0.052754026 -0.1705071 0.2065722
0.04050939 0.10851339 -0.34066403 -0.27560407 -0.08834528 -0.004217789 0.39022523 0.085272804
-0.27880165 -0.30817503

linear_stack.0.bias f4 [30]
00000000: cda5 b8be 57a5 8cbd c167 98be e86c cb3e
00000010: 5a38 20be a98b 0abe 05e7 503e 9ba1 1240
00000020: 5ed2 d7be f57b f3bd 4a80 523e 9dad b5be
00000030: 3a4c cabe 56c4 80be 8f9f a9bd 2523 fa3e
00000040: 5230 613d afd6 863d d9f8 9bbd 6018 32be
00000050: 5310 6b3e f729 fe3e 15db cbbe d21c 6d3e
00000060: 15d3 14be dd19 f53c 7e2e 5abe 5829 d8bd
00000070: f22e 89be 3c59 cb3e
-0.36063996 -0.068674736 -0.29766658 0.39731526 -0.15646496 -0.13529839 0.20400627 2.2911136
-0.42152685 -0.11888877 0.20556751 -0.3548402 -0.3951128 -0.25149792 -0.082823865 0.48854938
0.054977722 0.065839164 -0.07615823 -0.17392111 0.22955446 0.49641392 -0.39815584 0.23155525
-0.14533646 0.02991956 -0.21306798 -0.10554761 -0.2679363 0.39716518

linear_stack.2.weight f4 [30, 30]
00000000: 16f9 c73d 978f 543d 1f3a 68bd 2db8 3a3d
00000010: 1ae6 fe3c 260e 883d aaee 633e 7916 8ebc
00000020: 4256 bd3d 216c fe3d c93b 553d 8067 733d
00000030: 1783 0bbe dd1a 95bd dcf5 233e dfaf 563e
00000040: 01c4 243e 1290 d03d 1ca8 1abd d939 b5bd
00000050: 45a3 2dbe ed09 ccbc 92f6 71be dfeb 693e
00000060: ab17 e33d b2e4 763d 627e 45bd c6dc 43be
00000070: fd05 ed3d aaa3 d5bd 0de6 4ebe c000 353d
00000080: 816a 263d bd1e a63d 19aa 0ebe 3975 343e
00000090: 48be c73d 74c3 c13e 9732 03bd 018a a53b
000000a0: 3ced bc3d c1c2 9fbd 8584 503d 4906 6cbd
000000b0: 4303 013e 0410 6f3e 9186 88bc 47a4 16be
000000c0: 6c3e 42be 15d7 b73c 16ab a5bd 2917 203e
000000d0: 23f5 cdbd 8231 153e 6643 bebc b602 29be
000000e0: a0f6 c03b 8e6f c5bd b9f5 ca3d 60bb 2e3e
000000f0: cb00 123e fb04 4ebe 83a6 99bd 9ebc 90bd
00000100: 9d80 dbbd f338 19be d6bc 5abd e7c7 8fbd
00000110: 9a30 bd3c 9642 cd3d d06f 6abe c811 513d
00000120: 0acc 39bd cf01 2e3e 2eb9 883d 7685 82bd
00000130: 9107 51be e186 863d e125 453e 1fe2 71be
00000140: b8e7 9c3d 1d3d 03be fc9f 1dbc 40bf 07bd
00000150: 0562 053e 5e0f 22bd 9a8b 68be 209c 303e
00000160: 31ba 373d fd73 90bd ce95 253e d544 93bd
00000170: c4ea 3e3d f1ee 6b3e 06a9 973d 527c 6cbd
00000180: 1888 b33d 95ef 933e b16e 0a3e 3d30 983d
00000190: 4148 81bb 6ce2 863c 4b03 35be 302b 98bd
000001a0: 143d 163e 8ecf 3b3e 85bb 123e 6731 c7bd
000001b0: 8239 173b 5a2d a93c 7dbe 05be 1b96 a03d
000001c0: 45fd 53be 55c5 7b3e 452f c2bc b5b1 803d
000001d0: 988b 213d 2699 1c3e f9fc e83d 40a1 94bd
000001e0: eef6 5f3e 717a 553d eabe f93d 21fb c4be
000001f0: 4944 6d3e b8b7 253e dd6c a33d 8786 07bf
00000200: 0641 bf3d 1d94 f53d fa75 9cbd 4b89 4ebc
00000210: 57e9 043e f537 083b 5c23 be3c b66e 99be
00000220: 8c45 673d 778d 2ebe 3722 d3bc 0a6f 083e
00000230: b693 ccbd 56d5 e5be 9d97 a53e 1196 5bbe
00000240: 078e 3fbe fca6 cb3d ef4b b6bd c0f4 60be
00000250: c852 eb3a 429d f0bd f569 5b3e 3081 193f
00000260: dc10 de3e 84bd 2cbf 53c4 dd3e 9d4b 22be
00000270: e966 5c3e 4f53 d2bf 3b78 4d3d 03ad 033e
00000280: 6401 863d 5530 ecbd b13b cc3c 8f3b 13be
00000290: bfab 863e 886e c4be 7d44 993e 781d c8be
000002a0: 2e04 b03d 9ca0 1a3f 1c30 023c 4dd2 33bf
000002b0: f5bd ca3e 4de9 423e 6c35 d5be 1d8d 72bd
000002c0: 7f86 72be 0ec5 33be 039d bbbe 4597 dfbd
000002d0: b9ad 9bbd a3f7 d53d 4102 343d 0bd6 1a3d
000002e0: 517a a2bc 00e0 eebb 3e41 a03d 2f7b db3d
000002f0: c8ac 3dbc 5725 8d3c f77c e7bb 14d0 34bd
00000300: 3e5a b7bd 78e5 36be 8acb 69bd 8af8 d33d
00000310: 2465 f0bd 5d56 18be 6c64 85be 6d59 203e
00000320: 75d7 1d3d 1dd2 3f3e 9310 b43c 65db f93c
00000330: 93e7 e83d ce70 fcbc 6ab0 163e 5ef5 e6bd
00000340: f8ec 18be f25a 073e 96d3 eebd bd41 7e3e
00000350: b501 5f3e 6b67 383e 2a72 f5bd e276 7abd
00000360: ab0f 813e 4ce6 a03d 21c3 e43d 179a 843e
00000370: ca49 933e 18cb 76bd 18fd 5abd 2104 45be
00000380: e01d bdbd 2cef c0bd f544 633e 2891 143d
00000390: fac0 efbd 10ba 923e 8575 14bd 7325 9ebc
000003a0: edf7 8abe 1cbc 793e d24b 4c3e 99ff dcbd
000003b0: b6ff 823e 93f3 09be 6a6a 753d e5b9 393d
000003c0: bab8 0a3e 709f 2abe 0f0a 1f3e 36b6 1dbe
000003d0: 3c74 39bd 386c e93d 5f03 853d 7340 20bd
000003e0: f106 233c 0b40 1b3e cb91 ecbc 732f 10be
000003f0: 7d1e 12bc 95af c4bc 735d 4c3d ccf5 3c3e
0.09764306 0.05189475 -0.056696054 0.0455858 0.03111558 0.066433236 0.22259012 -0.0173447
0.09244968 0.12422968 0.05205897 0.059424877 -0.13624226 -0.072805144 0.16011757 0.20965527
0.16090395 0.10183729 -0.037757978 -0.08848924 -0.16956814 -0.024907077 -0.23629215 0.22843884
0.11088499 0.060276695 -0.04821623 -0.19127187 0.11573408 -0.10431607 -0.20204945 0.04419017
0.040628914 0.081113316 -0.13932075 0.17622842 0.0975309 0.3784443 -0.032030668 0.0050518517
0.09224936 -0.07800818 0.05090763 -0.05762318 0.125989 0.23345953 -0.016665729 -0.14711104
-0.18969125 0.022441426 -0.08089273 0.15633835 -0.10056522 0.14569667 -0.023225497 -0.1650494
0.005888775 -0.09640418 0.09910149 0.17063665 0.14258115 -0.20119087 -0.07502463 -0.07067226
-0.107178904 -0.1496313 -0.053402744 -0.0702055 0.023094464 0.10022466 -0.22894216 0.05104235
-0.045360602 0.16992877 0.06675945 -0.06373112 -0.20413043 0.06568695 0.19252731 -0.23621415
0.07661384 -0.12816282 -0.009620663 -0.033141375 0.13025673 -0.039565437 -0.22709504 0.17247057
0.0448553 -0.07053373 0.16170427 -0.07190863 0.04661061 0.23040368 0.074052855 -0.05773575
0.08766192 0.28893724 0.13518788 0.07431076 -0.003945381 0.016465388 -0.17677037 -0.07430112
0.14671737 0.18340895 0.14329346 -0.097262196 0.0023075049 0.020651508 -0.13060947 0.0784113
-0.20702083 0.24586995 -0.02370418 0.06283895 0.039439768 0.15292796 0.11376376 -0.072573185
0.2187154 0.052118722 0.12194617 -0.38472846 0.2317058 0.16183364 0.079797484 -0.5293965
0.09338574 0.11991141 -0.0763969 -0.012605975 0.12979637 0.0020785306 0.02321022 -0.29967278
0.05646281 -0.17046152 -0.02577315 0.13323608 -0.09989111 -0.44889325 0.32342234 -0.21443965
-0.18706523 0.09943959 -0.08901202 -0.21968365 0.0017953748 -0.117487445 0.21427138 0.5996275
0.43372238 -0.6747668 0.43313846 -0.15849157 0.21523632 -1.6431674 0.05016349 0.12858967
0.06543234 -0.11532656 0.024930807 -0.14378189 0.26302907 -0.3836558 0.29935065 -0.39084983
0.08594547 0.6040132 0.0079460405 -0.7024277 0.3959805 0.1903431 -0.4164232 -0.059216607
-0.23684119 -0.17555639 -0.36643228 -0.10917524 -0.07601494 0.104476236 0.043947462 0.037801784
-0.019833716 -0.0072898865 0.07824944 0.10716855 -0.011576839 0.01722972 -0.0070644575 -0.04414375
-0.08952759 -0.17860973 -0.057078876 0.103501394 -0.11738041 -0.14876695 -0.26053178 0.15659113
0.038535554 0.18732496 0.02198056 0.030500123 0.11372294 -0.030815508 0.14715734 -0.11277269
-0.14934146 0.13218287 -0.116614506 0.24829765 0.21777995 0.18008201 -0.11984666 -0.06114853
0.25207266 0.07856426 0.111700304 0.2589881 0.28767234 -0.06025228 -0.053464025 -0.19239856
-0.09234214 -0.094206184 0.22194274 0.036271244 -0.11706729 0.2865758 -0.036244888 -0.019304967
-0.27142277 0.24388164 0.19950798 -0.10790939 0.25585717 -0.13471822 0.059915937 0.0453433
0.1354703 -0.16662383 0.15531181 -0.15401539 -0.045276865 0.11397594 0.064947836 -0.039123964
0.009950385 0.15161149 -0.028878113 -0.140806 -0.008918402 -0.024009505 0.049893808 0.18453139

linear_stack.2.bias f4 [30]
00000000: af4f 113e 93c7 ed3d b5f1 1ebd 2da5 08be
00000010: e1b8 2cbe aec7 763d 7b72 c73d 0b75 15be
00000020: 5105 1f3e 268f cf3d eedf 0abe e304 60be
00000030: 35db 9e3d aeb1 333d e96c ca3c e5eb d9bd
00000040: f079 26be 89d8 1f3e 829f d63d 516c 0c3e
00000050: e909 253e 35af 11be 1768 9bbd 57f5 fc3d
00000060: c42b 17bc a92d 253e cd6c 323e dfac c5bd
00000070: 0b3f ad3d 239f 353d
0.14190553 0.116103314 -0.03880473 -0.1334426 -0.168674 0.060249023 0.09738632 -0.1459543
0.15529372 0.10134725 -0.13561985 -0.21876864 0.07756654 0.04387062 0.024710136 -0.106406964
-0.16257453 0.15609945 0.104796425 0.13713194 0.16117062 -0.14226992 -0.07588213 0.12351482
-0.009226743 0.16130699 0.17424317 -0.09652113 0.0845929 0.044341218

linear_stack.4.weight f4 [1, 30]
00000000: ceba 93be 3c65 eabe c6b0 cb3e 275e dabe
00000010: cbc6 2b3f 6ac7 b33f 6ccc b3be 4899 2dbf
00000020: 54e3 58be 0652 343f 19ca 943d 3646 1a3f
00000030: a5c3 ab3e 456a b73e 38d4 cbbe 7e6b 28bf
00000040: b2b8 763e 3111 553d 045f 84bc 218c c7bd
00000050: 7aa5 713f 87f7 7e3e 6a51 ad3b 4c6f 073f
00000060: 39bc c1be a499 d23e 65d1 203d 983f ed3e
00000070: 7a4f 7cbf 1ef4 383e
-0.28853458 -0.4578036 0.39783305 -0.42649958 0.6710021 1.4045231 -0.351169 -0.67812014
-0.21180469 0.7043766 0.072651096 0.60263383 0.33547702 0.35823265 -0.39810348 -0.6578902
0.24093893 0.052018348 -0.016158588 -0.09743524 0.9439312 0.24899112 0.0052892463 0.529042
-0.37838915 0.41132843 0.039262194 0.4633758 -0.9855877 0.18061873
