flask/model.pth (torch, 7348 bytes, 5 tensors)

linear_stack.0.weight f4 [30, 7]
00000000: 545b 503f 3b58 acbd a4b8 04bf bbcc 85be
00000010: e21d 673d 629d ddbd e10b f4bd 5d80 09bf
00000020: 31aa 03bf 5e3a c73e 90c0 9ebe 168b 773e
00000030: 5f6f 873c 9d46 babe ff3f d5bd 031e 013d
00000040: be35 ce3b 5e88 003e ef05 b63e 002e 343e
00000050: 36cb e73e af5d f2be 2fc2 893e c9f5 433e
00000060: 0b64 cd3c 82c1 2d3e 34e3 223e a996 39be
00000070: 48ac 1f3f 2b26 01bf 3c74 0cbf 736f ad3d
00000080: 895b 9ebd b509 bc3f 630f 6d3d 24de 83be
00000090: 7d7e 36bd e900 b93e 7342 453e a4ee 7f3e
000000a0: 1ebb 6b3e acbc 32bd f1ec 2cbf 014e f13d
000000b0: a4b0 0f3d bd2b 8e3e bd1b ce3e ec4a 7d3d
000000c0: c4d0 96bd e6be 393d 9312 5dbe c8d3 a83e
000000d0: 3cba bb3e 5f76 5cbe d2de 2a3d 366a 513e
000000e0: 3bd5 a13f b5a0 10bf bbb6 3abe bed8 b1be
000000f0: 8a33 343e edc0 9dbe 6f5f 8bbe 799f 6cbe
00000100: dc3d e9be ec07 97be 21cb 4bbe befa 8cbe
00000110: 3ad4 20bf a9ec c2bc 7a65 f53f 4f9c 583f
00000120: 6ab6 05be ce58 93be df64 49be 7cd0 d03d
00000130: 88fd d9bd 1bd8 d7be 0aae 7ebc 5899 89be
00000140: 95d1 553e 426b 923e 13d3 2dbe bd01 63be
00000150: 4353 2f3f 2e96 d23e 8c2e 95bd 9f6c d23e
00000160: e3eb ad3d 6d8f 11bf 11fc c13e 89ee 68bf
00000170: e9cf 85be 7308 193d 6b43 143f e5f0 933e
00000180: d1eb 9fbf e0b4 a53e 6e59 233f 448d 10bd
00000190: 7a69 37be 3af8 783e c6c1 b33c a1cd e3bd
000001a0: d5b3 073e 8e58 b43e 1f10 90bd 91fb 953d
000001b0: 60dd 65be 9d25 553e 864f f73d f9aa 2dbe
000001c0: 3932 9fbe 1e00 2f3f f472 883d 381f f2bc
000001d0: 6120 1ebe 3b8f 503f b3d3 8fbe 4966 6cbd
000001e0: c247 333d 00d7 d4be eb5d 40be feee f33d
000001f0: 856c 493e 8508 893e ffcd 9e3d 0241 df3d
00000200: c213 873d fd8b c5be 4977 18be 188d bb3c
00000210: 47aa c3be d950 403e d1f2 2fbd a80b e63d
00000220: a063 7b3e 529d 2ebd 8436 cbbc 1728 4d3e
00000230: 2029 973e 2e01 bf3b 14d4 0a3e 06f4 bf3c
00000240: 89bd f1bd c870 e93d 4e22 883e aa37 61bf
00000250: 97f2 173f d2c7 9c3d 95d9 2abd a381 c5be
00000260: 89e9 9c3e 783c cb3c f0a2 9ebd 8642 56be
00000270: ebbb b8be 02d1 59be 497d 76be b114 853e
00000280: 7d1f 6abd e769 053f 61f9 fabe cefc 65be
00000290: 6aec 533e f0d9 9b3e 3c38 9b3c f429 c9bd
000002a0: 7c6e bf3d 9916 24bd 8084 06bf 691c 91be
000002b0: 5811 debb 865b 683d 208a f63d 6099 a0bd
000002c0: 779e 163f 8223 9ebe 4719 743e 7302 88be
000002d0: d3d2 53be a321 233e babe b83f e563 7ebe
000002e0: 31a0 45be 1a32 2e3c 39f7 c5be 3fe7 04bf
000002f0: 8c22 9bbe add2 2dbe d6d6 663d 350e ff3d
00000300: 2fc2 fd3b 2b71 b2be 9060 2cbd 3911 50be
00000310: 962c 243f 0e4b aabd 65b2 4abe 0e59 973e
00000320: 8b66 50be fb1b c23d 3777 bc3d d593 24bf
00000330: 5e25 8b3d 7c13 823c f53e 4c3e d39d a93c
00000340: 97dd d53c c127 9c3e
0.81389356 -0.08415266 -0.5184424 -0.2613276 0.056424983 -0.10821034 -0.11916328 -0.5371149
-0.51431566 0.38911718 -0.3100629 0.24174151 0.016532598 -0.36382 -0.10412597 0.031522762
0.0062930277 0.1255202 0.35551402 0.17595673 0.45272225 -0.473371 0.26905963 0.19136728
0.025072118 0.16968349 0.15906984 -0.18123879 0.62372255 -0.50448865 -0.5486486 0.08468523
-0.07732303 1.4690462 0.057876002 -0.25755417 -0.044554222 0.36133507 0.1926363 0.24993378
0.23020598 -0.043636963 -0.67549044 0.11782456 0.035080567 0.27767745 0.40255538 0.06183903
-0.07364038 0.04534807 -0.21589117 0.32974076 0.36665523 -0.2152953 0.041716404 0.20450673
1.2643198 -0.5649522 -0.18233769 -0.34735674 0.17597786 -0.30811253 -0.27221248 -0.23107709
-0.45555007 -0.2949823 -0.19901706 -0.2753505 -0.6282383 -0.023794489 1.9171593 0.8461351
-0.13057867 -0.2877869 -0.19667386 0.10196015 -0.106440604 -0.42157063 -0.015544424 -0.26874804
0.2088073 0.28597456 -0.1697505 -0.22168632 0.6848642 0.41130203 -0.07284269 0.41098496
0.084922574 -0.56859475 0.37887624 -0.90988976 -0.26135185 0.037361573 0.5791537 0.28894725
-1.249384 0.3236456 0.63808334 -0.03529097 -0.1791133 0.24313441 0.021942984 -0.11123205
0.13252194 0.35223812 -0.07034325 0.07323373 -0.22447729 0.2081513 0.12075715 -0.16959752
-0.31093004 0.68359554 0.066625506 -0.029555902 -0.15442039 0.8146855 -0.280912 -0.057714734
0.043769605 -0.41570282 -0.18785827 0.119108185 0.19670303 0.26764312 0.077541344 0.10901071
0.065955654 -0.38583365 -0.14889254 0.022894427 -0.3821585 0.18780841 -0.042956177 0.11232692
0.24549723 -0.0426305 -0.024806269 0.20034824 0.29523563 0.005828998 0.13557464 0.02343179
-0.11803729 0.113984644 0.26588672 -0.8797556 0.5935454 0.076553 -0.04171141 -0.38575467
0.30646923 0.024809107 -0.077459216 -0.20923814 -0.3608087 -0.21271136 -0.2407123 0.2599235
-0.057158936 0.5211472 -0.49018386 -0.22459719 0.20695654 0.3043971 0.018947713 -0.09822455
0.09347245 -0.040060613 -0.5254593 -0.28341988 -0.00677697 0.05672791 0.12038064 -0.07841754
0.5883555 -0.30886465 0.23837768 -0.2656437 -0.20685892 0.159308 1.4433205 -0.24842794
-0.1929939 0.010632062 -0.38665178 -0.51915354 -0.30299795 -0.16974898 0.056357227 0.12453882
0.0077440958 -0.34851965 -0.042084277 -0.2031907 0.6413053 -0.08315097 -0.19794615 0.2956013
-0.20351617 0.09477993 0.09202426 -0.64288074 0.067942366 0.015878431 0.19945891 0.02070514
0.026106639 0.3049908

linear_stack.0.bias f4 [30]
00000000: e008 00be 6191 debd be07 52bf 9e40 fe3d
00000010: 5a7d 7a3e 035e 28bf 4573 123d 34e1 a2bc
00000020: 6781 76be 0b55 353e 1917 b8bf 9ff4 2f3e
00000030: 47ac 27bf f0ec 6d3f dc70 00bf 8582 0abe
00000040: ceb8 d03e aeef 94bd add2 d0bd 1661 a2be
00000050: 1a54 4abe 7a5e 013f 7c15 10be 24ba b9be
00000060: 9aba 173e 4b58 123f 5d91 82be 08f5 b13d
00000070: c4c6 0abf 3638 8c3e
-0.12503386 -0.108675726 -0.82043064 0.124146685 0.2446188 -0.6576845 0.03575446 -0.019882776
-0.240728 0.17708223 -1.4382049 0.1718316 -0.6549725 0.9293966 -0.5017221 -0.13526352
0.40765995 -0.07272278 -0.10196433 -0.31714696 -0.19758645 0.50534785 -0.14070696 -0.36274827
0.14817277 0.57165974 -0.25501528 0.08689314 -0.5420954 0.27386636

linear_stack.2.weight f4 [30, 30]
00000000: b567 7a3e 5b80 91be 3aaa 6abe 63fb 763b
00000010: 986b ba3e add9 92be ee2e 7ebe 5643 ab3d
00000020: f5b7 953c f005 44be 27f0 e1bd 3269 2e3d
00000030: f30b 133e 6f92 073e 0e8b a5bc f8ee 543e
00000040: c5f3 8a3e a512 153e 19e8 3c3e b208 0dbd
00000050: 5892 383e 943b 32be 0048 3c3e 7f08 413e
00000060: 7202 df3d b8b4 ef3d 94ab 0dbd 8957 0d3d
00000070: 2dfb f93c 1d0a 74be 1d4a 3b3e 5bf4 113e
00000080: 238c a83c 3734 a5bd 235a ebbd 0c6c 313e
00000090: dc8b a4bd ae04 ebbd cd60 15be 3f50 103e
000000a0: 6a6b 8ebd 9787 743d 704e a4bc 7df8 853c
000000b0: 34a8 acbd 47b8 f53d 9d9f 1bbd 64bc 623c
000000c0: a167 783d 30ba 353d e5dd 563d 5bb7 2e3e
000000d0: c036 8a3d 0f9f 103e a1e5 a03d 5f6b 303e
000000e0: 49d6 323e 73ef 24be 9a0c 94bd 582a 9bbd
000000f0: 62de 5dbe 207d 283e 5ce8 c13d 036e 4dbd
00000100: 4c9e 3a3d 4c27 d3bd 3ef7 623e 8e60 273e
00000110: 4f5d 5cbd b1ca 313e 5a22 543d 5de5 1c3e
00000120: 65ba 863d cbf3 e7bd 43cf fd3d 75b7 793b
00000130: 22d8 5fbd 57a4 343e ab75 ebbd 3ca3 043e
00000140: 4d3f f7bd 5af8 c43d 8467 2b3e f81f b93d
00000150: 0f2b 0c3e 4221 72bb a09f e6bd 423e c7bd
00000160: 04a4 ca3d ee7c a53c c38a 933e 38c4 86be
00000170: f6a6 9b3e 071b 0dbe 111f 95be 3269 903e
00000180: 7ecb b2be 7c00 743d d54a 533f 7e8e 023e
00000190: 9007 ac3f 06cc c6be 6be2 1d3f f1f0 6cbf
000001a0: ec83 043f b8aa 8d3e cb62 d7be 764a 14be
000001b0: c9f7 e2bc dd4f de3e 83c5 c23e 1429 13bf
000001c0: d166 883d 24c2 d33e 1f9f f9bd 5375 12be
000001d0: d64f 3e3f dc30 68be 508e 183f 62ea 1ebe
000001e0: b44c 25be 2770 b33d a6ef 383e 159c 3abe
000001f0: 2b19 eebe f3a1 6c3e 279e 8bb6 c510 cfbd
00000200: 9ba9 3a3d e49c 303e 1f13 8f3e dc34 2f3e
00000210: d26e fd3d 76f8 a1be 5465 143e 0375 98bd
00000220: 793d 86be c6f7 edbd 3324 f5bd b2cf 673e
00000230: 7d6d fabd 466e 91be b9ae 32bd 778d 053e
00000240: 0cd3 1bbe 902e a5be 9685 8d3e ae86 c8bc
00000250: 95ef 793d 1673 b1bd fe9b 89be 574e 603e
00000260: b03c 8b3d df6f 7c3e 3b34 1abe d6cd 143e
00000270: 6b76 903e bba7 963c bf0d 73bd 62ce 7d3e
00000280: 8b25 b73c 37ec cd3c a5a1 1b3c fb99 fd3d
00000290: c525 a3bc 7a59 6d3d e40a 4fbe b28a e8bc
000002a0: 750d 73bd 63c0 ee3d 73d0 5abe bf8c de3d
000002b0: 19e4 453d b6a2 2dbe a3cb 3abe 686d 063e
000002c0: 8dd5 903d df0e 0fbe 927e 94be 3bb9 ae3d
000002d0: 5946 97be f0d4 873e b7ae 203e 4580 813d
000002e0: c1ad e1be 103e 053d 212d 913e 8527 1b3e
000002f0: fc2c 30bd eb95 c53d 97f6 c23c 0c92 ea3d
00000300: a893 e53d 84dd 7bbe 1c29 77be d9e7 b3bd
00000310: 8238 5bbe ff60 62bc 628b ddbd 8b58 7d3d
00000320: 71b6 df3d 9c2f 7cbd 5cb3 2f3d 4985 36be
00000330: 7d75 e6bd a2cc 08bd 402e 24be 6a20 9cbd
00000340: aa59 79be 5b38 913e 479a 933b e365 30bd
00000350: 02ad a9bc f4cd a53c f894 00be 4589 793e
00000360: da0c 6e3d 558c 9b3d efee a83d 454b 853e
00000370: f7eb 2e3e d5b4 23bd 305f 5f3e 3c93 98be
00000380: 48b5 c7bc 9721 f9bd 88c3 1cbc 7ccf 473e
00000390: e6b6 5a3d 4ee5 13be 1108 2bbe 1abb 203d
000003a0: 9a9c 013e 6408 43bd 05bf 3dbe 797a f03c
000003b0: da03 2bbc dce3 473d fbef 03be 251b 183e
000003c0: ef14 e63d 7e99 3cbe 9fe3 7fbe 0b9a fa3d
000003d0: 8d96 8d3e 8bad 2b3d 1b69 703c aa69 b5bd
000003e0: e330 173e 2e8d e4bd a867 7abe 19c1 f6bc
000003f0: 580e dcbd ce43 8dbd 6190 f0bd 094c b33d
0.24453624 -0.2841824 -0.22916499 0.003768646 0.36410213 -0.28681698 -0.2482259 0.08362453
0.018276194 -0.1914289 -0.110321335 0.04258079 0.14360027 0.13239454 -0.020207908 0.20794284
0.27139106 0.14557894 0.18447913 -0.03443212 0.18024576 -0.1740554 0.18386841 0.18850897
0.10889138 0.11704391 -0.034587458 0.03450731 0.030515278 -0.23831983 0.1828999 0.1425337
0.020574635 -0.080666 -0.114918016 0.17326373 -0.080344886 -0.11475502 -0.14587708 0.14093111
-0.06954081 0.05969962 -0.020056933 0.01635384 -0.0843052 0.11998039 -0.037994016 0.013838861
0.060645703 0.044367015 0.05245771 0.17062132 0.06748724 0.14123176 0.07856298 0.17228459
0.17464556 -0.16106968 -0.07228966 -0.07576436 -0.21666864 0.16453981 0.09468147 -0.050153743
0.04556112 -0.1031023 0.22164628 0.16345426 -0.053799924 0.17362477 0.051790573 0.1532187
0.06578521 -0.11325797 0.12393048 0.0038103734 -0.05464948 0.17640816 -0.11497053 0.12952894
-0.120726205 0.09617682 0.16738707 0.09039301 0.136883 -0.0036946093 -0.11260915 -0.097286716
0.09894565 0.020201173 0.28816804 -0.26321578 0.3040082 -0.13779841 -0.29125264 0.28205258
-0.34920877 0.059570774 0.8253606 0.12749669 1.3439808 -0.38827533 0.6167361 -0.9255515
0.51763797 0.2766931 -0.4206756 -0.1448153 -0.027706044 0.43420306 0.38041314 -0.57484555
0.06660236 0.41359055 -0.12188553 -0.14302568 0.7434057 -0.22674888 0.5959215 -0.15519097
-0.16142541 0.08761626 0.18060169 -0.18223603 -0.46503577 0.23108654 -4.160934e-06 -0.101106204
0.045571905 0.17247349 0.27944276 0.17110008 0.12374653 -0.31634873 0.14491779 -0.07444193
-0.26218775 -0.11619525 -0.11969795 0.22637823 -0.122279145 -0.28404444 -0.04362366 0.13042246
-0.15217227 -0.32262087 0.2764098 -0.024478283 0.0610195 -0.08664529 -0.26876825 0.21904884
0.067986846 0.2465205 -0.15058987 0.14531645 0.28215346 0.018390527 -0.05933928 0.2478576
0.02235677 0.02513705 0.009498988 0.12382885 -0.01991547 0.05794666 -0.20218998 -0.028386448
-0.059339006 0.116577886 -0.2136858 0.10866689 0.048313234 -0.169566 -0.18241744 0.13127673
0.070719816 -0.13970517 -0.29002815 0.08531424 -0.29545859 0.26529646 0.15691648 0.063232936
-0.44077876 0.03252989 0.28354743 0.15151794 -0.04301165 0.09647735 0.023799224 0.114536375
0.11209804 -0.2459622 -0.24136776 -0.08784456 -0.21408275 -0.013817071 -0.10817601 0.06185202
0.1092347 -0.06156884 0.04289566 -0.17824282 -0.11252878 -0.033398278 -0.16033268 -0.0762337
-0.2435061 0.28363308 0.0045044753 -0.043065917 -0.02071238 0.020239808 -0.12556827 0.2436877
0.058117725 0.075951256 0.08248698 0.2603399 0.17082201 -0.039967377 0.21813655 -0.2979983
-0.024378434 -0.1216461 -0.009568103 0.19512743 0.05339708 -0.14442942 -0.16702296 0.039240934
0.12657395 -0.047615424 -0.185299 0.029355275 -0.01043793 0.048801288 -0.12884514 0.14854105
0.112344615 -0.18417928 -0.24989174 0.122364126 0.27653924 0.04191355 0.014673497 -0.088580444
0.14764743 -0.111597404 -0.24453604 -0.030121373 -0.10744923 -0.06897698 -0.11746288 0.08754737

linear_stack.2.bias f4 [30]
00000000: 0d54 c2bd 8447 d23d fe2b 373d e8ba a2bd
00000010: fc4a 13be 0443 81bd 2bfa 623d 568c fc3d
00000020: 6cbd 7dbd 6b0c 123e bbea 2a3d f6e7 31bc
00000030: fedd 34be eb3d 33be 9998 2c3d c5aa 7bbd
00000040: 90a5 54bd c456 78ba 9234 fe3d 5c66 95bd
00000050: 7d33 4cbd 6b29 9fbd e9eb 62be 87d2 d7ba
00000060: 9064 d7bd b2ab 2c3e ca20 db3c 1351 22be
00000070: d80e 63be 3cf1 06be
-0.09488688 0.10267547 0.04471969 -0.07945806 -0.14384073 -0.0631161 0.05541436 0.123314545
-0.061948225 0.1426255 0.041727763 -0.010858526 -0.17662808 -0.17504089 0.042137716 -0.061442155
-0.051915705 -0.00094733783 0.12412371 -0.07294914 -0.04985379 -0.07771572 -0.22160305 -0.001646594
-0.10517228 0.16862372 0.026749033 -0.1585124 -0.22173631 -0.13177961

linear_stack.4.weight f4 [1, 30]
00000000: dd4d 48bf 9360 7e3d 11da 723e 07e5 9d3f
00000010: 08d0 323f fb4f 033f 57db 683f 2d9d d43e
00000020: d00a 85be 8bc0 c9be 04f6 993e 3ef9 e53d
00000030: 2eef c43e e674 483e 9d9e 133f e252 a6bc
00000040: 23ab 16bf aed4 363f 8583 243e cfc3 dc3d
00000050: c675 a5be 25e1 36be 17af 433e dd1a 773f
00000060: 66a7 40bf 455e 41be 02e5 46bf bea8 623e
00000070: 9087 253f ad61 0abe
-0.7824381 0.06210382 0.23715998 1.2335519 0.6984868 0.51293916 0.90959686 0.41526166
-0.25984812 -0.3940471 0.30070508 0.1122918 0.3846373 0.19575843 0.576639 -0.020303193
-0.58854884 0.71418273 0.16065796 0.10779535 -0.32316417 -0.17859323 0.1910976 0.96525365
-0.7525543 -0.18883617 -0.7769319 0.22134683 0.64659977 -0.13513823
